…
        "# Assuming that we are on a CUDA machine, this should print a CUDA device:\n",
        "\n",
        "print(device)\n",
        "\n",
        "net.to(device)\n"
      ],
      "execution_count": 5,
      "outputs": [
        {
          "output_type": "stream",
          "text": [
            "cuda:0\n"
          ],
          "name": "stdout"
        },
        {
          "output_type": "execute_result",
          "data": {
            "text/plain": [
              "Net(\n",
              "  (ReLU): ReLU(inplace=True)\n",
              "  (MaxPool): MaxPool2d(kernel_size=2, stride=2, padding=0, dilation=1, ceil_mode=True)\n",
              "  (conv1_1): Conv2d(3, 64, kernel_size=(3, 3), stride=(1, 1), padding=(100, 100))\n",
              "  (conv1_2): Conv2d(64, 64, kernel_size=(3, 3), stride=(1, 1), padding=(1, 1))\n",
              "  (conv2_1): Conv2d(64, 128, kernel_size=(3, 3), stride=(1, 1), padding=(1, 1))\n",
              "  (conv2_2): Conv2d(128, 128, kernel_size=(3, 3), stride=(1, 1), padding=(1, 1))\n",
              "  (conv3_1): Conv2d(128, 256, kernel_size=(3, 3), stride=(1, 1), padding=(1, 1))\n",
              "  (conv3_2): Conv2d(256, 256, kernel_size=(3, 3), stride=(1, 1), padding=(1, 1))\n",
              "  (conv3_3): Conv2d(256, 256, kernel_size=(3, 3), stride=(1, 1), padding=(1, 1))\n",
              "  (conv4_1): Conv2d(256, 512, kernel_size=(3, 3), stride=(1, 1), padding=(1, 1))\n",
              "  (conv4_2): Conv2d(512, 512, kernel_size=(3, 3), stride=(1, 1), padding=(1, 1))\n",
              "  (conv4_3): Conv2d(512, 512, kernel_size=(3, 3), stride=(1, 1), padding=(1, 1))\n",
              "  (conv5_1): Conv2d(512, 512, kernel_size=(3, 3), stride=(1, 1), padding=(1, 1))\n",
              "  (conv5_2): Conv2d(512, 512, kernel_size=(3, 3), stride=(1, 1), padding=(1, 1))\n",
              "  (conv5_3): Conv2d(512, 512, kernel_size=(3, 3), stride=(1, 1), padding=(1, 1))\n",
              "  (Linear1): Linear(in_features=32768, out_features=4096, bias=True)\n",
              "  (Linear2): Linear(in_features=4096, out_features=4096, bias=True)\n",
              "  (Linear3): Linear(in_features=4096, out_features=1000, bias=True)\n",
              "  (output): Linear(in_features=1000, out_features=10, bias=True)\n",
              "  (softmax): Softmax(dim=9)\n",
              ")"
            ]
          },
          "metadata": {
            "tags": []
          },
          "execution_count": 5
        }
      ]
    },
    {
      "cell_type": "markdown",
      "metadata": {
        "id": "7k-w_d-7ULkj",
        "colab_type": "text"
      },
      "source": [
…
